…
[Parallel(n_jobs=1)]: Using backend SequentialBackend with 1 concurrent workers.
[Parallel(n_jobs=1)]: Done   1 out of   1 | elapsed:   17.8s finished
Learning embedding vectors...
Learning embedding vectors done!
Embedded training set size: 1022640
Embedded test set size: 109978
Train test split summary: 
 Train X shape: (1022640, 128) Train y shape: (1022640,) 
 Test X shape: (109978, 128) Test y shape: (109978,)


Model: "sequential"
_________________________________________________________________
Layer (type)                 Output Shape              Param #   
=================================================================
dense (Dense)                (None, 128)               16512     
_________________________________________________________________
activation (Activation)      (None, 128)               0         
_________________________________________________________________
dropout (Dropout)            (None, 128)               0         
_________________________________________________________________
dense_1 (Dense)              (None, 25)                3225      
_________________________________________________________________
activation_1 (Activation)    (None, 25)                0         
_________________________________________________________________
dropout_1 (Dropout)          (None, 25)                0         
_________________________________________________________________
dense_2 (Dense)              (None, 1)                 26        
_________________________________________________________________
activation_2 (Activation)    (None, 1)                 0         
=================================================================
Total params: 19,763
Trainable params: 19,763
Non-trainable params: 0
_________________________________________________________________


Epoch 1/15
22371/22371 - 90s - loss: 0.2667 - mae: 0.3803 - val_loss: 0.1486 - val_mae: 0.2880
Epoch 2/15
22371/22371 - 66s - loss: 0.1496 - mae: 0.2876 - val_loss: 0.1263 - val_mae: 0.2608
…
